model.onnx (onnx, 12502 bytes, 4 tensors)

encoder.0.bias f4 [16]
0	0x3e10eacf	0.14152072
1	0xbc90ceb9	-0.017676698
2	0xbcc48cb6	-0.023992877
3	0xbdcdd6eb	-0.10050758
4	0x3daa8793	0.0832664
5	0xbcce1ebd	-0.025161142
6	0x3e4906b9	0.1963147
7	0x3df41667	0.119183354
8	0x3dc0b104	0.09408763
9	0x3bd15873	0.006388718
10	0x3e4b1174	0.19830877
11	0x3da89a90	0.082326055
12	0x3d800dee	0.06252657
13	0x3e4923f8	0.19642627
14	0x3e03a7e9	0.12857021
15	0xbd5c87c1	-0.053840403

encoder.2.bias f4 [32]
0	0xbd918318	-0.07105082
1	0xbd095e91	-0.03353745
2	0x3d54192a	0.05178181
3	0x3d27dbed	0.040981222
4	0x3dde85e6	0.10865383
5	0xb8e94e4c	-0.0001112489
6	0x3c8ea39f	0.017412005
7	0xbd4a071c	-0.049323186
8	0xbd482b6d	-0.04886954
9	0x3dc594ed	0.09647546
10	0xbc0c0d45	-0.008548086
11	0x3da0a88e	0.07844649
12	0x3d7b64cf	0.061375435
13	0x3b2e5e30	0.0026606433
14	0x3c1d2da8	0.009593405
15	0xbd384683	-0.04498912
16	0x3dc7cae6	0.09755497
17	0x3cf0f621	0.029414238
18	0xbdaf9d6c	-0.08574948
19	0xbce48008	-0.027893081
20	0x3d0a203b	0.033722144
21	0xbd9bf57a	-0.0761518
22	0xbdc2c573	-0.09510317
23	0x3dc707f2	0.09718312
24	0x3d8460d7	0.06463783
25	0x3db02465	0.08600692
26	0x3cb5acdd	0.022177154
27	0x3ce465ea	0.027880628
28	0x3be70b90	0.007050939
29	0x3cea2151	0.02858034
30	0x3d2525b9	0.04031918
31	0xbc6a5f89	-0.014305004

decoder.0.bias f4 [16]
0	0x3cedf109	0.029045599
1	0xbd136888	-0.03598836
2	0x3d278714	0.040900305
3	0x3ced0c7b	0.028936615
4	0x3d89e84f	0.067337625
5	0x3d9e80b6	0.077393934
6	0xbcd5bf22	-0.026092116
7	0xbd631056	-0.0554355
8	0x3c43b5d0	0.011945203
9	0x3b8f2cbd	0.004369347
10	0xbd626b89	-0.055278335
11	0x3c7b60cd	0.015342903
12	0xbb5836b1	-0.0032991583
13	0x3d844d34	0.06460038
14	0xbc384444	-0.011246745
15	0x3d15ff5c	0.036620483

decoder.2.bias f4 [3]
0	0xbd6b6b5e	-0.05747544
1	0x3d72ed43	0.0593083
2	0x3d52bdcd	0.05145054
