model.onnx (onnx, 12502 bytes, 4 tensors)

encoder.0.bias f4 [16]
000000 11 8a 6a bb bc 1b e4 3d a0 d7 8f bd e0 62 a4 3d
       -0.003578786 0.111381024 -0.07023549 0.080266714
000010 3a 74 27 3e 9e 0e e2 3d 60 ed f8 3d 34 2b 27 3e
       0.1635293 0.11037944 0.12154651 0.16325074
000020 f1 14 ef 3c 62 68 fd 3d 2e 07 bb bd 14 9c 03 3d
       0.02918479 0.12373425 -0.09132229 0.03213127
000030 e6 3b 82 bd 80 25 1b 3e 50 96 01 be 41 d6 a0 bd
       -0.06359081 0.15151024 -0.12654996 -0.07853366

encoder.2.bias f4 [32]
000000 19 3b 41 3d 9e 6e 3d bd 62 3b aa 3d 43 86 50 3d
       0.0471755 -0.04624807 0.083121076 0.050909292
000010 53 14 6d 3c b7 c7 d1 3d eb a3 83 bd 6a 6c ae 3b
       0.014470178 0.10243171 -0.06427749 0.0053229826
000020 82 6e f8 3c 47 6f 80 3d 2e 8a 4f bd 38 b5 6a 3d
       0.030326132 0.062712245 -0.050668888 0.05730173
000030 73 71 95 bb 79 ac 8f 3d 37 bc f4 3c 36 89 06 3b
       -0.0045606433 0.070153184 0.029874904 0.0020528561
000040 e1 51 d6 3d d2 70 88 3d 67 e4 91 bd b1 b0 87 3d
       0.10464836 0.06662144 -0.071236424 0.06625498
000050 24 6e c7 3d a9 ba 5f bc 74 9d af bc 13 88 15 bc
       0.097378045 -0.013655343 -0.021437384 -0.009126681
000060 a7 85 61 3d 82 71 97 bc b2 68 b1 3c 2b 7f 84 bd
       0.0550591 -0.018486742 0.021656368 -0.06469568
000070 dd 96 95 3d e1 7e 66 3d 97 73 95 bb ec 6b 89 3d
       0.073041655 0.056273345 -0.0045608985 0.067100376

decoder.0.bias f4 [16]
000000 7a 40 0d 3d 8c 95 3a bd 31 62 f1 3c c3 33 d8 3c
       0.034485318 -0.045552775 0.029465767 0.02639187
000010 06 33 1e 3c b7 cc a8 3c 2c 9e 93 3d cd 60 99 3c
       0.00965572 0.020605428 0.07207903 0.018722916
000020 ed f8 20 3d 0f 37 a7 bc 73 5b d0 3b 3f f1 ec 3c
       0.039299894 -0.020411996 0.006358558 0.028923629
000030 7b 94 3c bd 1e 3b 3a 3d 54 e3 0b 3d a6 41 29 3d
       -0.04604004 0.045466535 0.034152344 0.041322373

decoder.2.bias f4 [3]
000000 a2 7a a7 bd f1 05 58 3d 8d 90 a7 3c
       -0.08177687 0.05274004 0.02045467
